TMLEC_QRScan/app/src/main/assets/breathing_classifier.tflite (tflite, 6256 bytes, 6 tensors)

sequential/dense_1/BiasAdd/ReadVariableOp f4 [16]
00000000: c354 1f3e ec5a 053e bd7f 7c3d 4107 af3d
00000010: 5779 023e f58b a4bd a598 2d3d d0ec f93c
00000020: 90c5 a33d 2dc2 b2bc 458f dc3d 3dad 1e3d
00000030: 28d5 a03d 71e2 be3d fed8 8b3d 9c2e bc3c
0.15559678 0.13022965 0.06164526 0.085463054 0.127416 -0.08034507 0.0423819 0.030508429
0.079966664 -0.021821106 0.10769514 0.03873943 0.07853156 0.09320534 0.06828497 0.022971444

sequential/dense_2/BiasAdd/ReadVariableOp f4 [2]
00000000: 9bed a5bc 9aed a53c
-0.0202549 0.020254899

sequential/dense/BiasAdd/ReadVariableOp f4 [32]
00000000: 446b afb9 d5f9 143c 32f8 1f3e 05a2 7e3d
00000010: b736 0f3e 8487 4b3d b918 c23d 53a3 8ebd
00000020: 368b 133c 4f16 513d 60f9 ab3d 5451 f23d
00000030: 69c7 2e3e ca94 693d 3367 99bb 7423 51ba
00000040: 4b6b 093e b47d 113d 229b 9a3d 3d8d 2c3d
00000050: 89a3 673d b5bf bf3d 9c53 b73d 0c0b fd3d
00000060: 42c4 663c 2e3d 933c 3e3b 083d cb78 8cbd
00000070: e6dc 033d b06d f0bc 1319 9c3d d4ff bfbc
-0.0003345852 0.009092768 0.15622023 0.062166233 0.13985716 0.049689785 0.09477372 -0.069647454
0.009005358 0.051046666 0.08397174 0.11831918 0.17068256 0.057026662 -0.0046814918 -0.0007978
0.13419835 0.03552027 0.075491205 0.042126883 0.056552444 0.09362737 0.08951494 0.12355623
0.014084877 0.017973509 0.033259623 -0.06858977 0.032193087 -0.029349178 0.0762197 -0.023437418

sequential/dense/MatMul f4 [32, 14]
00000000: 52ce 093e f363 e0be 5f91 83be 1c18 0bbf
00000010: 2c48 61be 3eaf b13b 00e2 2e3e 8388 27be
00000020: 2905 3dbe 1b73 bbbd 6c5a 3f3e 1452 ebbd
00000030: 7905 9c3d 7fa3 c6be 2548 8dbe 4e69 b13e
00000040: bba3 9cbe f34d 17bc d97e c03b ae9a b93e
00000050: 2274 f8bd 2dff 1e3e a052 413e 2066 7b3e
00000060: 245b 4d3e f391 953e 5b5f 1d3e f5ac 233e
00000070: ad3b a9be f95d cabe 03b3 a83e 1d5a bd3d
00000080: d58b 833c d213 c2be 7f4d c13c 4908 d5be
00000090: 1e1f ac3e 6d83 8c3e 4cd1 303d 1c9d 01bf
000000a0: b242 d93e 4432 eebc ee9d f1be 3011 a9be
000000b0: 7050 07be ceeb 87be 2add e8be a4d0 6fbd
000000c0: f104 a33d 1739 383d ed69 7b3d 6a7b 7dbe
000000d0: e298 00bf abe7 0b3c 6878 c93d a9be 433e
000000e0: b638 50be 2178 00bf 041e bd3d fc4f 23bf
000000f0: 1e93 d43d cdfa ff3d 05de adbe b0a0 70be
00000100: af1c 813e 5468 bbbe bc2d 46be 9f78 d8be
00000110: f01b 593d bd8f 9b3d d76b 36be ac72 313e
00000120: 5fdb 833e f2b1 f73d ed2e 303e 5004 e83d
00000130: 2f71 aa3e 830c bd3e 2aad bd3e 1425 babd
00000140: e959 1abb f804 073e ed9d d9be 9b81 a63d
00000150: de9d c9bd e4e9 643e 6beb be3e 05f7 ce3e
00000160: 8f9c 083d a7b8 91be 78f2 a3be 27a6 793d
00000170: 7046 2abd e5b8 3a3d 1cc1 1bbe c81c d63d
00000180: e1db 273e d81e 3f3e c3a9 b53e d8ef 8fbe
00000190: f95a 193e 1c89 073d d3c6 ac3e 74f1 b2be
000001a0: 763e c2bd 48ba 5fbe ded1 92be 377c d13d
000001b0: b6aa fc3d 2bd3 ba3d 4233 213d 87c0 313d
000001c0: 57d3 353f 8c23 54be 7a4b f93e 4697 cf3d
000001d0: b0c3 953e f89a e23d ccf7 d83d 942d 57be
000001e0: 31a3 dcbd 3c09 963d 7437 c7bd 0f99 e73d
000001f0: c285 1dbd 69b1 b5be 42c3 a1be e040 ffbb
00000200: 695d 69bd 4c82 98be e479 9fbe 1e92 1e3e
00000210: a383 92be 5d13 5b3e d4e5 1cbd 5ef6 a23d
00000220: 4149 b0be 0680 83bd 0bc1 5d3e e90d bb3d
00000230: 0457 7dbb 9e8c cabc 121b 39be 1ad3 653e
00000240: 2691 363e 568e b63e ba66 053e ba18 613c
00000250: aebb 9bbe b9c1 8f3e 3b85 963e 7b76 563b
00000260: 9697 0cbf d3aa 83be d09c 0e3d 0310 713e
00000270: 276a 0f3e df69 a8be 2e24 73be b7f4 a0be
00000280: e569 bf3d 3297 1dbd 2d06 ba3d f3d8 12be
00000290: d79b 543e acd0 cbbc c378 6abe 73fd 893c
000002a0: c057 1d3e daaa 833e 4bc5 873e ca86 833e
000002b0: b449 643e 631b d63e 875c 29be ab9d f73d
000002c0: 6e7d 64be dca3 3cbd 52a3 e03e 9f7e 64bc
000002d0: 6e54 ee3d b094 8e3e 5088 8e3e 143e bebd
000002e0: 4368 42be b832 83be 3741 d9bd 7605 a23e
000002f0: c204 a03e 6e4b 8a3e 8419 9ebe 1a08 53be
00000300: 2319 01be 0215 15be 4857 dc3e b67b 42be
00000310: ac18 903d 0e7b 1c3e 80d9 f3bd 3843 4e3e
00000320: 85fd 9bbe 4f2b 6cbe 775a f13d fee8 623e
00000330: 640e a4be dc35 6fbe b097 3ebe 5b3a c13d
00000340: d7b0 10be c951 da3c d29c 15bb 1c4b 5cbd
00000350: 7341 aabd 178a a53e dfbf c7bd 6e6a 83be
00000360: 0c66 23be 234b ed3d 0494 1fbd 70d5 30be
00000370: 40cc 843d ed60 9d3e c936 93be 9a10 a43c
00000380: 2106 8d3e c791 9dbe 11cd b63e ac77 54be
00000390: e413 d63d 39b3 113b 8119 a2be c9e5 b7be
000003a0: c5a5 c03c f7c9 183e 91b6 993e b155 3abc
000003b0: 9213 f93e abca 05bf 48f4 843e b920 a2bd
000003c0: c8c4 bc3e 01a9 803e c889 6ebd 8886 843e
000003d0: 2a3b ad3e 4973 aebe 8336 883d ec4c 7e3d
000003e0: ea05 80be eb04 a2be fcd0 cfbe 48ec a33e
000003f0: 3c7f bc3e 1403 1fbe 15c1 903d 1be1 243e
0.13457611 -0.43826255 -0.25696847 -0.54333663 -0.22000188 0.005422502 0.170784 -0.16360669
-0.18459 -0.09152814 0.18686837 -0.114902645 0.07618231 -0.38796613 -0.27594104 0.34650654
-0.30593666 -0.009234893 0.0058744964 0.36250824 -0.121315256 0.1552703 0.18879175 0.24550676
0.20054299 0.29212913 0.15368406 0.15983947 -0.33053342 -0.3952482 0.32949075 0.09245703
0.016057888 -0.37905747 0.023596523 -0.41607884 0.3361749 0.2744402 0.04316835 -0.50630355
0.42433697 -0.029076703 -0.47190803 -0.33020926 -0.13214278 -0.26547092 -0.45481235 -0.058548585
0.07959927 0.04497632 0.061380316 -0.2475411 -0.5023328 0.008539121 0.09837419 0.191157
-0.20334134 -0.501833 0.09234241 -0.6379392 0.10379623 0.12499008 -0.3395845 -0.23498797
0.25217196 -0.36603034 -0.19353384 -0.42279527 0.05300516 0.07595775 -0.17814575 0.173289
0.25753304 0.12094487 0.17205401 0.113289475 0.33289477 0.36923608 0.37046176 -0.09089103
-0.0023552126 0.13185489 -0.425033 0.08130189 -0.09844564 0.22354847 0.37288985 0.40422836
0.03335243 -0.2846119 -0.32020926 0.06094947 -0.04157108 0.045586485 -0.15210384 0.10454708
0.16392471 0.1866411 0.3548108 -0.28112674 0.1497611 0.033089742 0.3374544 -0.3494984
-0.0948457 -0.21848404 -0.2867574 0.1022877 0.12337248 0.09122308 0.039355524 0.0433965
0.71025604 -0.20716685 0.48690397 0.10136275 0.2925086 0.11064714 0.105941385 -0.2101348
-0.10773314 0.0732598 -0.09727374 0.113084905 -0.03845764 -0.35486916 -0.31594282 -0.007789716
-0.05697385 -0.2978691 -0.31147683 0.15485427 -0.28616056 0.21394105 -0.03830512 0.07957147
-0.34430888 -0.06420903 0.21655671 0.091335125 -0.0038656602 -0.024725255 -0.18076733 0.2244381
0.17828807 0.3565547 0.13027468 0.013738805 -0.30416626 0.28077486 0.29398522 0.0032724428
-0.549188 -0.25716266 0.034817517 0.23541264 0.14005338 -0.32893273 -0.2374427 -0.31436703
0.0934637 -0.03847427 0.09083209 -0.14340572 0.20762573 -0.024879776 -0.2289763 0.016844487
0.15365505 0.25716287 0.2651771 0.25688773 0.2229374 0.4181777 -0.16539203 0.1209062
-0.22313473 -0.046054706 0.43874604 -0.013946204 0.116371974 0.27847815 0.27838373 -0.09289184
-0.18985085 -0.25624633 -0.10608142 0.3164479 0.3125363 0.27010673 -0.30878842 -0.20608559
-0.12607245 -0.14558795 0.4303534 -0.18992504 0.07035956 0.15281317 -0.11906719 0.2014283
-0.30466858 -0.23063396 0.11784833 0.22159192 -0.3204223 -0.2336039 -0.18612552 0.094349585
-0.14129959 0.026650326 -0.0022829068 -0.053782567 -0.08313265 0.32331917 -0.097533934 -0.25667137
-0.15956897 0.11586597 -0.038959518 -0.1726892 0.0648427 0.3073801 -0.28752735 0.020027447
0.27543738 -0.30775282 0.35703328 -0.20748776 0.104530126 0.002223207 -0.31660083 -0.359175
0.023516545 0.14920793 0.300221 -0.0113729695 0.48647743 -0.5226237 0.25967622 -0.079163976
0.36868882 0.2512894 -0.058236867 0.2588389 0.338342 -0.3407233 0.06651022 0.062085077
-0.25004512 -0.31644377 -0.4058913 0.32016206 0.36815822 -0.15528518 0.070680775 0.16101496

sequential/dense_1/MatMul f4 [16, 32]
00000000: 44c8 a0be f847 6e3d 413f be3e 660d a1be
00000010: 1fa1 a6bd 8446 c8be aa4e 563e 0cf4 a2bc
00000020: bba8 063f fa14 0ebd 912c 90bd 2127 a6bc
00000030: b5f1 853e 68d1 763e ed31 b73d 57f3 3c3d
00000040: ccef b43e 8ab4 963e ac26 e03e f17b ab3d
00000050: 0745 05be e774 e2be a255 ea3e 5a2e 95be
00000060: 1ff9 d83d 34e4 053e 9199 5abe 9fcd 58be
00000070: 4fd6 3dbe 90b4 30bd cd93 cd3e c967 463e
00000080: 4b56 8d3e 4cea c1be 19be 923e 84f7 e33e
00000090: ea16 34be fdfb 3fbe d5f3 8e3d 1f35 70be
000000a0: 4ec0 67be d26e b23e 9e38 6e3e 551f 173e
000000b0: abfd 5c3e e4c7 52be 7b74 623e 3421 1d3e
000000c0: c838 ba3e be8d f3ba cc62 45be 197f d8be
000000d0: e14d abbd 58e1 d63e b8ef ddbd b456 a43d
000000e0: c191 a93e 459b 4ebe bba1 843e b040 153f
000000f0: 93ec ac3e d232 eabe 84f1 82be 6aa0 0ebe
00000100: b04b 2bbe d318 46be 64cb b53e 7e18 ae3e
00000110: b105 443e fda0 b43b 3ed3 6f3d b929 d3be
00000120: f679 48be 90ae 0e3c 468e 20be cabd 6b3d
00000130: bcb4 dcbc b9a7 043e 1abd a63e f19f 413e
00000140: 473c 953e ed6b 81be 4ab2 a23d af50 6fbe
00000150: df7d 07be bda6 b03e 9b35 b8be 2cc2 9e3e
00000160: 2941 f1bc b78f b3be a06d 9f3e 2cb8 e43d
00000170: 0732 ad3e 1fcf 03bf fc76 c0bc b057 06be
00000180: 7332 3e3e 2bcb 303e 053e 9a3e f702 acbc
00000190: f70a 78be a86d 653d 20c3 943e caa4 6c3d
000001a0: b19a dc3e 50c8 1cbe 9a70 cbbe bf1e 27be
000001b0: 6059 7f3e c694 dd3e 0c20 0ebe e68f b33d
000001c0: 144c 4a3e 6ce8 00be ad32 92bd d910 e73e
000001d0: 381c b43e dc05 113e 0186 8cbb 5c07 a13d
000001e0: 55f6 dfbd 2cce f5bc 10af 1d3e c339 cfbe
000001f0: 6573 aabe 87e1 98bd 4c11 943e 1317 df3d
00000200: 023e 073e 604e c53d c6a3 34bd 9021 b2be
00000210: 5837 2a3e 7439 bb3e d772 d5bc bc24 8fbd
00000220: a22d 493d 7242 7fbe 27e2 ad3e 6377 033e
00000230: 326d 1b3d eae5 4e3e 15e2 50be d33c d13e
00000240: 4c39 443e a087 003e 5ea9 56be 84fc 11be
00000250: 9c2a ea3d 8478 0a3e 4853 61be ee0c 5ebd
00000260: d233 e9bd afeb eebd 2ecf 303c 7692 00bf
00000270: f96f 483e ce09 47be 7dd3 68be f8a2 74bd
00000280: 3600 41be 757f 833e 4ee2 333e 2f5f abbe
00000290: 72b1 5bbe 49dc 623e a4e5 263d 066b 84be
000002a0: 609b babd 7a67 f0bd ea6a 6fbc 40f9 aabe
000002b0: 6f2b 55be 5c88 4f3c f3ef 903e e76b 163e
000002c0: 5a5c 603e 7fd7 25be fa03 d5be d9bb 323e
000002d0: 61f3 bdbd 830f 063d ce1a 963e 6f6e b83e
000002e0: 5092 693e a0d4 b83d 6c50 bdbd 8ad1 923d
000002f0: 765d 86bb ec63 9fbe 651b 773c 9b5d ce3d
00000300: 6f5a 69be 52d2 4abe a50b d2bd 94ee 67be
00000310: fd2c b03e cb46 433e 2f08 e8bd 091d 36bd
00000320: f3f4 60bd 262b 84be 811b 05bd 9772 11be
00000330: e250 943e 3a00 1d3d efd2 58bd a5b7 6fbe
00000340: 79b1 e43e 3ed0 753e b5e5 d53e 0a03 a0bd
00000350: db65 82be 3489 eebe b0c9 f7bd fe09 af3e
00000360: 3b30 543e 0924 903b 6b8e 0abf 2868 bbbe
00000370: 793b a0bd 3500 543e 610e bdbc 708b 623e
00000380: c74b df3c a24e 97be 61b8 833d 0dbe 273e
00000390: f224 37bb 1ac0 21be 031b a93e 99b8 03bc
000003a0: 7273 4d3e f1fe 40be 53c9 b5bd 0fae 43bd
000003b0: 96b3 b43e cec5 db3d b47c 1e3e 95d5 5abd
000003c0: 3bc4 d13e 515e 80be 6307 7bbe 71eb e03e
000003d0: 2ded fa3b 90f0 8cbe 22e8 9c3e 629c cf3d
000003e0: 09f7 96be 7a5b 9b3e 47d6 d5bc 9ce1 d3be
000003f0: 37cc 123e 68fa d23b d2ed e63e 98e9 15bb
-0.3140279 0.058174103 0.37157634 -0.31455535 -0.081362 -0.391163 0.20928445 -0.019891761
0.5260121 -0.034687974 -0.0703975 -0.02028233 0.2616097 0.2410332 0.089450695 0.046130504
0.353392 0.29434615 0.43779504 0.08373249 -0.13014613 -0.44229814 0.45768458 -0.29136926
0.10594391 0.13075334 -0.21347643 -0.21172188 -0.18538783 -0.043140948 0.40151826 0.19375528
0.276049 -0.37874067 0.28660658 0.44524777 -0.17586866 -0.1874847 0.06980101 -0.23457764
-0.22631952 0.34850174 0.23263785 0.14758046 0.21581142 -0.20584065 0.22114746 0.15344697
0.36371446 -0.0018581671 -0.1927597 -0.42284468 -0.083644636 0.419688 -0.10836738 0.0802435
0.33119014 -0.20176418 0.2590464 0.5830183 0.33774242 -0.45741898 -0.25574887 -0.1392838
-0.16728091 -0.19345407 0.35506737 0.3400306 0.19142796 0.0055123554 0.058551066 -0.4124277
-0.19577774 0.008708611 -0.15679273 0.057554044 -0.02694165 0.12954606 0.32566148 0.18908669
0.2914755 -0.25277653 0.07944162 -0.23370622 -0.1323161 0.3450221 -0.35978398 0.31007516
-0.029450016 -0.35070583 0.31138325 0.111679405 0.3382723 -0.51487917 -0.023494236 -0.13119388
0.18573932 0.17265002 0.30125442 -0.020997507 -0.24222933 0.05601278 0.2905512 0.057774343
0.4308677 -0.15310788 -0.39734346 -0.16320322 0.24936438 0.43277568 -0.13879412 0.08767681
0.19755584 -0.12588662 -0.07138572 0.4513004 0.3517778 0.14162391 -0.0042884354 0.07862732
-0.10935656 -0.030005537 0.15398812 -0.40473756 -0.33291164 -0.07464891 0.28919446 0.10893073
0.13207248 0.096340895 -0.0441015 -0.3479123 0.16622674 0.3656727 -0.026055736 -0.069894284
0.049115784 -0.2492769 0.33961603 0.12838511 0.037945934 0.20204893 -0.20398743 0.40866718
0.19162482 0.12551737 -0.20963046 -0.14256483 0.11433908 0.13522536 -0.22004426 -0.05421155
-0.11386837 -0.11666047 0.010791583 -0.5022348 0.19573964 -0.19437334 -0.22736926 -0.05972573
-0.18847737 0.2568318 0.17566797 -0.33471057 -0.21454409 0.22154345 0.040746346 -0.25862902
-0.09111667 -0.117384866 -0.014612893 -0.33393288 -0.2081735 0.012666788 0.28308067 0.14689599
0.2191023 -0.16195486 -0.41604596 0.1745447 -0.092749365 0.032729637 0.29317325 0.36021754
0.2280972 0.0902493 -0.09243855 0.07168873 -0.004100497 -0.31130922 0.015082215 0.100764476
-0.22788404 -0.19806793 -0.10256127 -0.22649604 0.34409323 0.19069974 -0.11329686 -0.044461284
-0.0549211 -0.2581417 -0.032496933 -0.14203869 0.2896796 0.038330294 -0.052935537 -0.23409899
0.4466665 0.2400522 0.41776815 -0.0781308 -0.25468335 -0.46589053 -0.12099016 0.3418731
0.20721523 0.004398827 -0.5412356 -0.36602902 -0.078238435 0.20703204 -0.023078145 0.22123504
0.027257813 -0.2955218 0.06431652 0.16381092 -0.0027945605 -0.15795937 0.3302842 -0.008039617
0.2006357 -0.18847252 -0.0887629 -0.047773417 0.35293263 0.107310876 0.15477258 -0.053426344
0.40970024 -0.25071958 -0.24514537 0.43929628 0.007657668 -0.27527285 0.30645853 0.101372495
-0.29485348 0.3034323 -0.026103152 -0.41383064 0.14335714 0.006438542 0.45103317 -0.0022874828

sequential/dense_2/MatMul f4 [2, 16]
00000000: 6827 80bd fe7b d33e 1bb3 263e c8ad 39bf
00000010: 81c0 093f 7262 31be 1870 c9be 8b8b 07bf
00000020: cdeb 373f 2771 b53c dc63 943e 190a 97bd
00000030: 7755 cf3e 6206 bb3e dc05 1d3f bc95 053e
00000040: 3112 353f 4664 22be 9dd9 3fbf 4bc5 423e
00000050: 56b7 873d b3d7 eabe 193b da3e dcf3 0c3f
00000060: 085e 34bf 380f 5c3e 80e7 30bf b941 cfbe
00000070: e55a 01bf 6a9a f1be 1473 3f3d 7af8 283f
-0.06257516 0.41305536 0.16279261 -0.72530794 0.5380936 -0.1732271 -0.39343333 -0.529473
0.7184418 0.022148682 0.28982437 -0.07374973 0.40494892 0.36528307 0.61337066 0.130454
0.7073088 -0.15858564 -0.74941427 0.19020574 0.066267654 -0.4586769 0.42623213 0.550596
-0.7045598 0.2149018 -0.6910324 -0.4047983 -0.5052932 -0.4718812 0.046740606 0.66004145
