TMLEC_QRScan/app/src/main/assets/respiratory_abnormality.tflite (tflite, 5616 bytes, 6 tensors)

sequential/dense_1/BiasAdd/ReadVariableOp f4 [16]
0.05258496 -0.034450505 0.037987214 0.0062072496 -0.008367478 0.03960609 -0.023702214 -0.025242997
-0.029145291 0.035194214 0.04709628 0.03571645 0.013815762 -0.0329464 -0.025649786 -0.020488827
00000000: 5463 573d f91b 0dbd 7b98 1b3d 2f66 cb3b
00000010: bf17 09bc ff39 223d 252b c2bc 67ca cebc
00000020: 1bc2 eebc cf27 103d 07e8 403d 6a4b 123d
00000030: 815b 623c cef2 06bd 801f d2bc 2fd8 a7bc

sequential/dense_2/BiasAdd/ReadVariableOp f4 [2]
0.035184473 -0.035184473
00000000: 981d 103d 981d 10bd

sequential/dense/BiasAdd/ReadVariableOp f4 [32]
0.029072946 -0.029562186 -0.012618673 -0.013373682 -0.029015813 -0.012713574 0.036655206 0.020808082
0.0321616 0.020600162 -0.023110464 -0.040620122 0.038823247 -0.021801727 -0.01591029 0.015391044
-0.026370509 0.021730935 0.029072866 -0.028275097 0.030389149 0.0230553 -0.029584492 -0.028614994
-0.022856116 -0.018714182 0.037444234 -0.029774398 0.06787795 0.03443468 -0.005288389 0.03392171
00000000: 632a ee3c 662c f2bc 8dbe 4ebc 4a1d 5bbc
00000010: 92b2 edbc 984c 50bc c523 163d b675 aa3c
00000020: e2bb 033d acc1 a83c 2852 bdbc 4961 26bd
00000030: 2005 1f3d 8999 b2bc 4c56 82bc b82a 7c3c
00000040: f706 d8bc 1305 b23c 382a ee3c 2da1 e7bc
00000050: aaf2 f83c 78de bc3c 2d5b f2bc fe69 eabc
00000060: c03c bbbc 7c4e 99bc 205f 193d 70e9 f3bc
00000070: 9803 8b3d 610b 0d3d 394a adbb 7ef1 0a3d

sequential/dense/MatMul f4 [32, 9]
-0.33418715 0.36210322 0.073618114 0.24714552 0.028048007 0.2844364 0.22170086 0.22171997
0.01619629 0.25717393 -0.27815133 -0.21798328 0.031707823 -0.29993242 0.26608273 -0.17065637
-0.11612459 -0.29103374 0.1779826 -0.23879762 0.39242166 -0.05725526 -0.048941463 0.10910115
0.25821456 -0.286605 -0.2167248 -0.14410396 0.039276246 0.1817599 0.16718023 0.19312346
0.096170135 0.025009433 0.0074827923 -0.1059125 -0.29733768 0.2787076 0.31274396 -0.3201365
0.025777247 0.31602484 -0.25335315 -0.11043544 0.2048582 0.12593679 -0.08044853 -0.019619253
0.26335597 0.09168521 0.2288615 -0.30590937 0.212041 0.36843306 -0.14441852 0.008419012
-0.25459772 -0.09578071 0.17759097 -0.09319823 0.16777875 0.3344944 -0.005276731 0.3499482
0.085627034 -0.12650818 0.16551341 -0.29554555 0.3280658 -0.32478994 -0.11505917 0.16912705
0.12447147 0.36888447 -0.19393219 -0.19046867 -0.19573121 -0.048796598 -0.35864514 0.12878874
-0.22667167 -0.30776504 -0.16399813 0.012145288 0.08809547 -0.36891022 -0.00010972143 0.016572375
-0.22859176 -0.0708532 0.27570212 -0.21217453 0.13483433 -0.20722432 0.3394037 0.373177
0.27400988 -0.08912033 -0.122122645 -0.22972831 0.3074511 -0.006096414 0.2630791 0.29406983
0.1927727 0.098662816 -0.025376497 -0.20632465 0.22448377 -0.18597192 -0.33980548 0.04002288
0.36125678 -0.07268022 -0.02421265 -0.22824524 0.34827885 0.049140368 0.021465898 0.23449759
0.25692067 0.2825874 -0.27382782 -0.17151685 0.28009298 0.34549055 0.19710258 0.19748983
0.05416689 -0.34865516 0.22373794 -0.27813047 -0.25957027 -0.22218339 -0.062486872 -0.021645922
0.14877056 -0.37435934 -0.14751098 -0.022617506 0.34136966 -0.31766093 -0.2602055 0.12844943
0.121424764 0.082980536 -0.004742214 0.13350958 0.35372683 0.17517045 0.083920345 -0.06292244
0.32846993 -0.14910382 0.1804878 -0.045125157 0.040991463 0.28319186 0.25401583 -0.2855177
0.15091594 0.10425467 0.06246151 -0.2700921 0.19004613 -0.027189065 0.3023644 0.14571361
0.074578926 -0.2553 -0.20351817 0.11340429 0.07548665 0.28309545 -0.104049146 -0.19732963
-0.14626727 0.23796071 -0.30085978 -0.27544376 -0.09859639 0.21116938 0.007641557 -0.13814673
0.27763483 0.04854121 0.14121865 0.19281532 0.290654 0.22343184 -0.36302096 0.275069
0.06828425 -0.15699092 0.31080148 -0.22658831 -0.29921344 0.2161437 0.3346498 -0.23270254
-0.26727575 0.20817922 0.3713723 0.0029393083 0.29939234 -0.26280135 -0.088080905 0.32761323
0.13043475 -0.28321937 0.30185243 -0.062144414 0.3117733 0.054749 -0.027352631 0.19800964
0.23964313 0.19038758 -0.2588344 -0.052971806 -0.1963613 0.28064102 -0.2374558 0.09688617
0.060315624 0.29236582 -0.25326985 0.39103955 -0.032180347 -0.05515382 0.18139897 -0.26691467
0.0010194024 0.29913524 -0.1621271 -0.27557313 -0.025675228 0.24397297 -0.32461795 -0.21485612
-0.35266206 0.2507365 -0.4055511 0.10983394 0.23870625 -0.19540428 0.2252934 0.22489801
0.07553131 0.06126903 -0.19536106 0.40696082 0.052901592 -0.3185427 -0.27892268 0.24580608
00000000: 941a abbe 9865 b93e 18c5 963d b713 7d3e
00000010: efc4 e53c a6a1 913e 8d05 633e 8f0a 633e
00000020: 15ae 843c 4dac 833e da69 8ebe 0237 5fbe
00000030: 10e0 013d be90 99be ff3b 883e 8bc0 2ebe
00000040: bbd2 edbd 6002 95be 1241 363e 5d87 74be
00000050: 7eeb c83e 7e84 6abd d876 48bd 6c70 df3d
00000060: b334 843e e4bd 92be 1bed 5dbe fd8f 13be
00000070: 21e0 203d 441f 3a3e 4b31 2b3e 28c2 453e
00000080: d9f4 c43d 95e0 cc3c 3632 f53b a7e8 d8bd
00000090: a53c 98be c3b2 8e3e fa1f a03e eee8 a3be
000000a0: ce2a d33c 02ce a13e 81b7 81be fa2b e2bd
000000b0: 59c6 513e 93f5 003e 33c2 a4bd 8eb8 a0bc
000000c0: 98d6 863e 75c5 bb3d ab5a 6a3e 27a0 9cbe
000000d0: 4721 593e 42a3 bc3e 73e2 13be e5ef 093c
000000e0: a25a 82be ad28 c4bd 68da 353e b7de bebd
000000f0: 31ce 2b3e da42 ab3e 6ee8 acbb 692c b33e
00000100: 3a5d af3d 5c8b 01be 597c 293e bf51 97be
00000110: 3ef8 a73e de4a a6be 24a4 ebbd a42f 2d3e
00000120: e6ea fe3d 6dde bc3e 2996 46be 380a 43be
00000130: c36d 48be f1de 47bd 56a0 b7be 32e1 033e
00000140: 9e1c 68be 6193 9dbe 20ef 27be 08fd 463c
00000150: 666b b43d cde1 bcbe 3f1a e6b8 cac2 873c
00000160: f513 6abe 7c1b 91bd d428 8d3e 4844 59be
00000170: 0312 0a3e 9d32 54be 52c6 ad3e 0e11 bf3e
00000180: 064b 8c3e b884 b6bd 701b fabd e63d 6bbe
00000190: 3b6a 9d3e 6dc4 c7bb 4eb2 863e 5290 963e
000001a0: 3566 453e bb0f ca3d 5fe2 cfbc c546 53be
000001b0: 13df 653e 6c6f 3ebe fcfa adbe 08ef 233d
000001c0: a6f6 b83e 5ed9 94bd 9b59 c6bc 1fb9 69be
000001d0: 9b51 b23e 6947 493d 40d9 af3c 2320 703e
000001e0: 1b8b 833e 4caf 903e 2933 8cbe 1da2 2fbe
000001f0: 5968 8f3e 23e4 b03e 42d5 493e c63a 4a3e
00000200: 1ade 5d3d ee82 b2be 8f1b 653e 1e67 8ebe
00000210: 65e6 84be 0b84 63be 3cf2 7fbd ca52 b1bc
00000220: 4f57 183e 07ac bfbe 1e0d 17be 5948 b9bc
00000230: 01c8 ae3e 74a4 a2be a839 85be 3f88 033e
00000240: 8cad f83d b3f1 a93d 9364 9bbb bcb6 083e
00000250: af1b b53e e25f 333e 6ede ab3d 7bdd 80bd
00000260: 362d a83e acae 18be cbd1 383e 28d5 38bd
00000270: aae6 273d 86fe 903e 5d0e 823e 602f 92be
00000280: b589 1a3e 7983 d53d a4d7 7f3d 8349 8abe
00000290: 749b 423e 9abb debc 82cf 9a3e f335 153e
000002a0: d6bc 983d aeb6 82be 1167 50be 8240 e83d
000002b0: bf98 9a3d e3f1 903e b817 d5bd c710 4abe
000002c0: 16c7 15be f9ab 733e 4b0a 9abe f706 8dbe
000002d0: e7ec c9bd c93c 583e 0766 fa3b 5676 0dbe
000002e0: 2726 8e3e 26d3 463d 9f9b 103e 6171 453e
000002f0: 9ad0 943e 51cb 643e e2dd b9be d8d5 8c3e
00000300: 9dd8 8b3d 3ac2 20be 5f21 9f3e c406 68be
00000310: 8132 99be c654 5d3e 3857 ab3e 9349 6ebe
00000320: 5ed8 88be ef2c 553e 8324 be3e 69a1 403b
00000330: f449 993e e68d 86be c363 b4bd ecbc a73e
00000340: b090 053e 2102 91be 678c 9a3e 248b 7ebd
00000350: c0a0 9f3e 7d40 603d a012 e0bc 0ac3 4a3e
00000360: 0265 753e f6f4 423e f185 84be f7f8 58bd
00000370: f012 49be 2eb0 8f3e 9d27 73be 426c c63d
00000380: 840d 773d f9b0 953e 96ac 81be 5636 c83e
00000390: 8acf 03bd f9e8 61bd a7c0 393e 0aa9 88be
000003a0: 789d 853a 4128 993e a604 26be ec17 8dbe
000003b0: db54 d2bc 0dd4 793e 5334 a6be 3e03 5cbe
000003c0: 1f90 b4be 8960 803e 65a4 cfbe 9ef0 e03d
000003d0: 696f 743e 0f18 48be 50b3 663e aa4b 663e
000003e0: 29b0 9a3d 3cf5 7a3d bb0c 48be 2b5d d03e
000003f0: 57af 583d 0718 a3be f4ce 8ebe 97b4 7b3e

sequential/dense_1/MatMul f4 [16, 32]
-0.29666376 -0.25391313 0.33495012 -0.009667598 -0.20784593 0.116069645 -0.276025 0.2968713
0.18688798 0.0385464 0.13092065 0.25015175 -0.25980422 0.116260156 0.1500332 -0.104205504
-0.26546574 0.20537567 0.2100819 -0.12779869 -0.15575089 0.35490307 -0.27343678 -0.0029405397
-0.0679981 0.09890551 0.2930872 0.16788049 0.28095302 -0.16935949 -0.1509109 0.09360837
0.30910355 -0.0007832635 -0.1615512 0.018071849 0.32563487 0.104389645 -0.06830195 -0.30189112
-0.21339919 0.14832544 0.15837047 0.06494254 -0.3091162 0.057301894 0.041248083 0.29537725
0.1536889 -0.092615016 0.15163872 0.15471217 -0.13800134 0.076553546 0.09068494 -0.16514559
0.09669217 0.050299045 0.23068619 0.07547856 -0.34648973 -0.12669304 0.13250017 -0.08934045
0.2481273 0.3102178 -0.07147757 0.25235665 0.11958322 0.09412684 0.2846877 -0.3079648
0.026347438 0.28943765 -0.2808642 0.07102143 0.3693539 -0.07940183 0.32371745 0.34210598
-0.024740674 0.07154795 0.17072292 0.13766095 -0.039460223 0.34626636 -0.2677814 0.164849
0.24257618 0.35715237 0.24574414 0.1922678 0.17360967 0.37745157 0.035867438 0.3520994
0.34356987 -0.19404154 0.298469 -0.13407663 0.089768425 0.30231544 0.2096241 0.038393874
-0.09144392 -0.3282046 0.12988353 0.21632816 0.021967238 -0.026158039 0.23664741 0.14597283
0.22822644 -0.28264725 -0.1050895 -0.26604414 -0.32658565 0.3475867 -0.037099585 -0.12272333
0.13864636 0.3181893 0.172834 -0.026288668 0.27522367 -0.24822395 -0.082140714 0.054493953
-0.22654742 0.27755466 0.014808225 0.14461716 0.08233976 -0.24572927 -0.15749402 -0.0534513
-0.35824302 -0.030817052 0.14689368 -0.27213207 -0.1981169 -0.094587654 -0.23859166 -0.29214218
-0.05047193 0.107634366 -0.28952008 0.04026612 0.19608325 -0.174829 -0.043898582 -0.005509943
0.27179056 0.009291202 0.16235872 -0.32690883 -0.13594024 0.021005124 -0.2192818 -0.071308926
-0.053666443 -0.045373816 -0.27831832 0.07165416 -0.07875985 0.14921129 0.3471351 0.32297334
0.020844776 0.060840536 0.14318949 0.018704351 0.3717605 0.21247105 -0.0043629194 0.29128155
-0.027137693 -0.06404997 0.08570969 -0.1744301 -0.017016761 0.22065039 0.034063134 0.07754745
-0.28256008 -0.036030862 0.1605887 0.26026505 0.1846967 -0.05330947 -0.057335746 0.33721498
0.00046884338 -0.054643247 0.14847378 0.0835539 0.24286541 0.11780718 -0.27905118 -0.14387155
-0.2382026 0.31039807 -0.2934334 0.26187515 0.23024848 -0.0691188 -0.068470925 -0.16012128
-0.13299978 -0.13948314 -0.32055944 -0.20454767 0.21458349 -0.2211199 0.05767698 -0.30766565
-0.12666282 0.14812115 -0.21159613 -0.17190583 -0.30140948 -0.20427935 -0.0378429 0.023376135
-0.20568448 0.06584853 0.04030974 0.26547164 0.29309937 -0.29018915 0.06292818 -0.21611151
0.0011091802 -0.2790961 -0.22804816 -0.26920488 -0.04765855 0.20105153 0.08483552 0.26840398
-0.1743435 -0.36540616 0.042486235 0.2835018 -0.25311044 -0.24889502 0.25667074 0.16404006
-0.2871169 0.21248013 -0.045305993 0.17828597 0.13626543 0.21684349 0.29831865 -0.33456504
00000000: 50e4 97be e700 82be 957e ab3e d864 1ebc
00000010: 90d5 54be ecb5 ed3d 2653 8dbe 84ff 973e
00000020: 905f 3f3e d4e2 1d3d 1010 063e e413 803e
00000030: 0f05 85be ce19 ee3d 4ea2 193e b269 d5bd
00000040: 20eb 87be 004e 523e b61f 573e a9dd 02be
00000050: 297d 1fbe dbb5 b53e e8ff 8bbe 12b6 40bb
00000060: 9642 8bbd f98e ca3d 870f 963e dde8 2b3e
00000070: 13d9 8f3e 936c 2dbe 6388 1abe bfb5 bf3d
00000080: d242 9e3e ec53 4dba ae6d 25be 6a0b 943c
00000090: 9db9 a63e 3dca d53d e5e1 8bbd 7991 9abe
000000a0: 5185 5abe a0e2 173e de2b 223e 9800 853d
000000b0: 7b44 9ebe 64b5 6a3d c0f3 283d b03b 973e
000000c0: 9f60 1d3e f1ac bdbd 2e47 1b3e de6c 1e3e
000000d0: 3950 0dbe 1bc8 9c3d 07b9 b93d ed1b 29be
000000e0: 8b06 c63d 5f06 4e3d 0039 6c3e 8194 9a3d
000000f0: 1a67 b1be d2bb 01be 20ae 073e 20f8 b6bd
00000100: 1515 7e3e ded4 9e3e d562 92bd e434 813e
00000110: 0ce8 f43d 93c5 c03d 96c2 913e 90ad 9dbe
00000120: 95d6 d73c 2c31 943e 6fcd 8fbe af73 913d
00000130: f41b bd3e 6d9d a2bd 4bbe a53e 8428 af3e
00000140: f4ac cabc bb87 923d fdd1 2e3e fef6 0c3e
00000150: 0ba1 21bd d349 b13e a51a 89be 2dce 283e
00000160: e465 783e addc b63e 5aa4 7b3e dae1 443e
00000170: bcc6 313e 5541 c13e bce9 123d 5f46 b43e
00000180: 64e8 af3e d3b2 46be eed0 983e 624b 09be
00000190: 82d8 b73d 17c9 9a3e b3a7 563e e542 1d3d
000001a0: f346 bbbd 6f0a a8be 3000 053e 2185 5d3e
000001b0: a3f4 b33c 6249 d6bc b353 723e e779 153e
000001c0: 31b4 693e 24b7 90be 2a39 d7bd f036 88be
000001d0: 3c36 a7be e2f6 b13e bcf5 17bd 5f56 fbbd
000001e0: 50f9 0d3e b5e9 a23e 65fb 303e 555b d7bc
000001f0: 1eea 8c3e 6b2e 7ebe 6439 a8bd 0d35 5f3d
00000200: 0cfc 67be a51b 8e3e 339e 723c 8516 143e
00000210: c0a1 a83d 74a0 7bbe 1d46 21be c0ef 5abd
00000220: a16b b7be 0b74 fcbc 4c6b 163e e554 8bbe
00000230: 28df 4abe 2cb7 c1bd 5f51 74be a993 95be
00000240: a8bb 4ebd 686f dc3d fa3b 94be 16ee 243d
00000250: 0cca 483e 6006 33be 00cf 33bd c08c b4bb
00000260: 2228 8b3e 203a 183c 5d41 263e 9860 a7be
00000270: eb33 0bbe f012 ac3c 688b 60be 6a0a 92bd
00000280: 58d1 5bbd e5d9 39bd bd7f 8ebe 6bbf 923d
00000290: d84c a1bd d8ca 183e b1bb b13e c35c a53e
000002a0: aac2 aa3c ed33 793d 44a0 123e de39 993c
000002b0: 6457 be3e 0392 593e d2f6 8ebb db22 953e
000002c0: de4f debc a12c 83bd 9088 af3d ce9d 32be
000002d0: bc66 8bbc 2df2 613e c985 0b3d 33d1 9e3d
000002e0: b7ab 90be 1995 13bd 5d71 243e 7641 853e
000002f0: 2221 3d3e 085b 5abd e3d8 6abd 71a7 ac3e
00000300: 18cf f539 99d1 5fbd 8309 183e 4f1e ab3d
00000310: b6b1 783e e444 f13d ccdf 8ebe 1053 13be
00000320: 62eb 73be 7fec 9e3e e73c 96be 8014 863e
00000330: 42c6 6b3e 288e 8dbd 7c3a 8cbd d5f6 23be
00000340: 1831 08be abd4 0ebe 5e20 a4be f274 51be
00000350: c6bb 5b3e 416d 62be b23e 6c3d 5a86 9dbe
00000360: e6b3 01be 12ad 173e a8ac 58be 1508 30be
00000370: 5852 9abe 9b2e 51be 2801 1bbd 4f7f bf3c
00000380: f49e 52be 98db 863d d31b 253d e6eb 873e
00000390: 1f11 963e ac93 94be 7de0 803d 564c 5dbe
000003a0: e961 913a afe5 8ebe 7585 69be 39d5 89be
000003b0: 9d35 43bd 74e0 4d3e 3fbe ad3d 3f6c 893e
000003c0: 1a87 32be 8416 bbbe 0c06 2e3d 2627 913e
000003d0: b197 81be 56de 7ebe 596a 833e 1efa 273e
000003e0: fc00 93be 6494 593e c792 39bd 9990 363e
000003f0: 2a89 0b3e 380c 5e3e 39bd 983e 1c4c abbe

sequential/dense_2/MatMul f4 [2, 16]
-0.37686005 -0.2957049 0.5383483 -0.33765537 0.37599245 0.049533144 -0.38898844 -0.26865354
-0.15132834 0.14275102 -0.027756335 0.4096454 0.1368271 0.11228843 0.17942278 -0.11289651
-0.60557157 0.12451888 0.36390987 -0.37203026 0.4881946 -0.08075566 0.009769733 0.39339858
0.394939 -0.4384949 -0.5054586 -0.06779801 -0.4006415 0.54738665 0.5527285 0.5026954
00000000: cdf3 c0be a266 97be 32d1 093f 2ae1 acbe
00000010: 1582 c03e 44e3 4a3d 7e29 c7be f58c 89be
00000020: d1f5 1abe 532d 123e 4161 e3bc 0bbd d13e
00000030: 671c 0c3e 7af7 e53d 9bba 373e 4936 e7bd
00000040: bd06 1bbf c103 ff3d 6552 ba3e c07a bebe
00000050: a5f4 f93e 3963 a5bd 3b11 203c 8a6b c93e
00000060: 7235 ca3e 6782 e0be bc65 01bf afd9 8abd
00000070: e220 cdbe 8821 0c3f 9d7f 0d3f a5b0 003f
