TMLEC_QRScan/app/src/main/assets/respiratory_disease.tflite (tflite, 5688 bytes, 6 tensors)

sequential/dense_2/MatMul f4 [2, 16]
0	0x3ebd42a1	0.36964896
1	0x3edc4665	0.43022457
2	0xbe9fed51	-0.31235746
3	0x3f06dbca	0.5267912
4	0x3e82a627	0.2551739
5	0x3f049246	0.51785696
6	0xbef19f0b	-0.47191653
7	0x3ea42e32	0.32066494
8	0xbeb340cf	-0.35010383
9	0x3e248fd6	0.16070494
10	0xbe5023e6	-0.20326194
11	0xbee661ff	-0.4499664
12	0xbdff96e2	-0.124799505
13	0xbe94cd65	-0.29062954
14	0xbec896f5	-0.3917767
15	0x3e4f98f9	0.20273198
16	0x3ed77d1c	0.42087638
17	0x3e3e2ae0	0.18571043
18	0x3f043926	0.516497
19	0xbe915850	-0.2838769
20	0x3dd69bcd	0.104789354
21	0x3eb8bb7d	0.36080542
22	0x3da29d3d	0.07940147
23	0xbc146f94	-0.009059805
24	0x3e91a2e6	0.28444594
25	0x3ef46591	0.4773374
26	0x3ad67793	0.001636254
27	0x3eb90a4a	0.36140662
28	0xbe9849b8	-0.29743743
29	0xbf008e26	-0.502169
30	0x3de94751	0.11390556
31	0x3f0807de	0.53137004

sequential/dense_1/MatMul f4 [16, 32]
0	0x3c843568	0.016138747
1	0x3e5b34d5	0.21406873
2	0xbd830127	-0.06396704
3	0xbe82032e	-0.2539305
4	0x3e9e5aa6	0.30928534
5	0x3e198934	0.14993745
6	0x3e90bb9f	0.28268144
7	0xbeaca27a	-0.3371771
8	0x3d03f8fe	0.03221988
9	0x3d8fd7e2	0.07023598
10	0x3ea3ac99	0.3196762
11	0xbdb16a3d	-0.086628415
12	0x3c4eb028	0.012615241
13	0x3e79ab82	0.24381831
14	0xbe3c4ff9	-0.18389882
15	0x3e277d46	0.16356382
16	0xbe2e5a21	-0.17026569
17	0x3dd93f13	0.106077336
18	0xbcb4ed0d	-0.02208569
19	0x3e2d4c01	0.16923524
20	0x3c107d4d	0.0088189365
21	0x3aa6d8d5	0.0012729416
22	0x3e87ea66	0.2654602
23	0xbd45cc8c	-0.048290774
24	0x3e80838e	0.25100368
25	0xbe12b7ab	-0.14327876
26	0xbe7007d0	-0.2344048
27	0xbe59c99a	-0.21268311
28	0xbe8e4340	-0.27785683
29	0x3e954a87	0.29158422
30	0xbe951ef9	-0.29125193
31	0x3e03889b	0.1284508
32	0x3d0d3146	0.03447082
33	0x3e8d9a00	0.27656555
34	0x3ea4d9a4	0.32197297
35	0xbdcfa120	-0.10138154
36	0x3e4eadc5	0.20183475
37	0x3ddd22e4	0.107976705
38	0x3da78ede	0.08181547
39	0x3dc3f10a	0.09567459
40	0x3da30e2d	0.07961688
41	0x3d04753a	0.03233836
42	0x3b3f8c8b	0.0029228057
43	0x3d890d54	0.06691995
44	0x3e95bb82	0.2924462
45	0xbe9ff859	-0.31244162
46	0xbd4f7009	-0.050643954
47	0x3e59bc2d	0.2126319
48	0x3e052e84	0.13006026
49	0x3e29f3e7	0.16596948
50	0xbcdf8ae1	-0.027287902
51	0x3e9c5058	0.30530047
52	0xbeaadae3	-0.33370122
53	0xbe06964d	-0.13143273
54	0xbdaa6371	-0.08319748
55	0xbe9788d8	-0.2959659
56	0x3e00ce0e	0.12578604
57	0x3e99c20b	0.30030856
58	0xbe386f29	-0.18011154
59	0xbc3e8860	-0.011629194
60	0x3c852d17	0.016256852
61	0x3e000d1f	0.12505005
62	0x3dffd1d3	0.12491193
63	0xbd8d7379	-0.0690679
64	0x3e7b33ca	0.24531475
65	0x3e45eb8e	0.19328138
66	0x3e9923d0	0.29910135
67	0xbdb1b3f6	-0.08676903
68	0x3e9b2fc6	0.30309886
69	0xbea84c9e	-0.32870954
70	0x3e4c7566	0.19966659
71	0xbe1a687c	-0.1507892
72	0x3e04ef75	0.1298197
73	0x3eaf51a8	0.34241986
74	0xbc1b47a8	-0.009477533
75	0x3e52836c	0.20557946
76	0x3ead06e8	0.33794332
77	0xbce47c7a	-0.027891386
78	0x3eade360	0.33962536
79	0x3cf60d00	0.030035496
80	0x3c17843a	0.009247834
81	0x3e36ce48	0.17852128
82	0xbe8cfd2e	-0.2753691
83	0xbe974708	-0.2954638
84	0x3e8f362a	0.2797101
85	0xbe1c8c55	-0.15287907
86	0x3e9c3f6a	0.3051713
87	0xbde370dd	-0.11105511
88	0xbea7382c	-0.32660043
89	0xbd830853	-0.06398072
90	0xbdb21b61	-0.08696628
91	0x3d87b649	0.06626565
92	0x3eaaeea9	0.33385208
93	0x3e76d77c	0.24105638
94	0x3eb42261	0.3518248
95	0x3e60b174	0.21942693
96	0xbdba3994	-0.090930134
97	0xbe9de7d6	-0.3084094
98	0x3b5ad100	0.0033388734
99	0x3cc44d60	0.023962677
100	0xbc181e20	-0.009284526
101	0xbe7572fd	-0.23969646
102	0xbeb46418	-0.35232615
103	0xbd7e42d8	-0.062075466
104	0xbe402f0d	-0.18767948
105	0x3e767812	0.2406924
106	0xbe906e26	-0.28209037
107	0xbd9b57c4	-0.07585099
108	0xbe3b9465	-0.18318327
109	0xbca713d0	-0.02039519
110	0xbe668a67	-0.22513734
111	0xbe67e48d	-0.22645779
112	0xbc5c4700	-0.013444662
113	0xbe9f74ec	-0.31143892
114	0x3d4131a0	0.047166467
115	0xbd099840	-0.033592463
116	0x3de794cc	0.113076776
117	0x3e96fe1d	0.29490748
118	0xbe815693	-0.25261363
119	0x3e8c8c01	0.27450565
120	0x3dd31920	0.103075266
121	0x3e86311d	0.26209345
122	0x3e88689f	0.2664232
123	0xbe93997a	-0.2882803
124	0x3eb10699	0.34575346
125	0xbe8049f9	-0.25056437
126	0xbde0383c	-0.10948226
127	0x3e86a0a9	0.2629445
128	0xbdeb857e	-0.11500071
129	0xbbb9d02b	-0.0056705675
130	0xbd9af35d	-0.07565949
131	0xbdb7252d	-0.089426376
132	0xbc893d15	-0.016752759
133	0xbe63bfce	-0.22241136
134	0x3c841c8f	0.016126899
135	0xbdfcdc44	-0.123467
136	0xbe9153da	-0.28384286
137	0xbcae6471	-0.021288129
138	0xbe99b0d5	-0.30017725
139	0x3e7fa6ff	0.24966048
140	0x3dd9bbd6	0.1063153
141	0x3e070fd2	0.13189629
142	0xbe05f13e	-0.13080308
143	0xbe926316	-0.28591222
144	0x3d5c62ac	0.05380504
145	0x3e9bff6f	0.30468318
146	0x3eac0450	0.3359704
147	0xbea5e8bd	-0.32404128
148	0xbe679a00	-0.2261734
149	0x3e04c6f0	0.12966514
150	0x3ea96db7	0.33091518
151	0x3d81fc36	0.063469335
152	0xbeb10bb4	-0.3457924
153	0x3ca73c8a	0.02041461
154	0xbe759859	-0.23983897
155	0xbe262966	-0.1622673
156	0x3e996aa7	0.29964182
157	0xbe98cc37	-0.29843304
158	0x3dcd0fd9	0.10012788
159	0x3c9c1a6f	0.019055573
160	0xbdca9dc4	-0.09893373
161	0xbe8fc4d5	-0.28079858
162	0x3e41c8a3	0.18924193
163	0x3bdd9106	0.006761673
164	0xbdb4c561	-0.088267095
165	0xbe597db6	-0.21239361
166	0xbea39810	-0.31951952
167	0x3e372791	0.17886187
168	0x3e700ad5	0.23441632
169	0x3dcbeb43	0.09956982
170	0xbdf3df15	-0.11907784
171	0x3c6495a1	0.01395169
172	0xb89d21c5	-7.4926334e-05
173	0xbe9a6c6d	-0.30160847
174	0xbdfb471b	-0.12269422
175	0xbe7a019c	-0.24414676
176	0x3e1ff6d8	0.15621507
177	0x3caa6cfb	0.020803919
178	0x39ebc53d	0.00044969647
179	0xbd109898	-0.035301775
180	0x3e2745e4	0.16335255
181	0x3e5f2f6a	0.21795431
182	0x3dd0aee8	0.10189611
183	0xbdd34503	-0.10315897
184	0x3e3930d5	0.18085034
185	0x3e9c67dc	0.30547988
186	0x3dcb49c0	0.09926176
187	0x3da8dadc	0.08244869
188	0x3e6c35c5	0.23067386
189	0x3e8cd862	0.27508837
190	0xbe095da5	-0.13414629
191	0xbe149758	-0.14510858
192	0x3e16c458	0.14723337
193	0xbb4acf2f	-0.0030946245
194	0xbc61e266	-0.013786888
195	0x3dff6042	0.124695316
196	0x3e9cebe4	0.3064872
197	0xbcbaf2e4	-0.022820897
198	0xbe484fcf	-0.19561695
199	0xbeb155aa	-0.3463567
200	0x3e839008	0.25695825
201	0x3df6f791	0.12058938
202	0xbdce4c81	-0.10073186
203	0x3bce2ff9	0.00629234
204	0x3e20b624	0.15694481
205	0xbc0f8fb5	-0.00876229
206	0xbe6dfcc1	-0.23240949
207	0xbe24cd06	-0.16093835
208	0xbd906cee	-0.07052027
209	0xbead2242	-0.338152
210	0xbe809ed1	-0.25121167
211	0x3dcb6e5c	0.09933159
212	0xbd3a12bd	-0.045428026
213	0x3dcee0be	0.1010146
214	0xbd3ab6b1	-0.045584384
215	0x3e82dca5	0.25558963
216	0x3e9b9752	0.30388886
217	0x3e700d83	0.23442654
218	0x3e42cd2a	0.19023576
219	0x3ccd0ca1	0.025030436
220	0xbe709939	-0.2349595
221	0x3e582fe2	0.21112016
222	0x3ea3e71e	0.32012266
223	0x3e6ca749	0.23110689
224	0xbeb79f40	-0.35863686
225	0xbe875435	-0.26431432
226	0xbdc35757	-0.09538143
227	0xbd76772a	-0.060172237
228	0x3d8253a6	0.06363611
229	0x3e40512a	0.18780962
230	0xbe7e62c9	-0.24842371
231	0x3dc8bf8c	0.0980216
232	0x3e82c181	0.25538257
233	0x3e34f975	0.17673285
234	0xbe3f7d98	-0.18700254
235	0x3d81357a	0.06309028
236	0x3e9161c7	0.2839491
237	0x3df2e57d	0.11860178
238	0x3de2007b	0.11035248
239	0x3de66196	0.11249082
240	0xbdb4c039	-0.08825726
241	0xbeaa0b51	-0.3321176
242	0xbe717ce6	-0.23582801
243	0x3e810ded	0.25205937
244	0xbe976b2f	-0.29573962
245	0xbea78565	-0.3271896
246	0x3e9ca60b	0.3059543
247	0x3d9e1704	0.07719234
248	0x3e4db35d	0.20087953
249	0x3d1537d2	0.036430188
250	0xbe549e25	-0.20763452
251	0x3c1c1ac5	0.009527867
252	0x3e420f75	0.18951209
253	0x3d4125d8	0.04715523
254	0x3c8db2f4	0.017297246
255	0xbe877d13	-0.26462612

sequential/dense_1/BiasAdd/ReadVariableOp f4 [16]
0	0x3c278fb8	0.010227136
1	0xbc4acb93	-0.012377637
2	0x3c5489be	0.012972293
3	0x00000000	0.0
4	0xbaae9129	-0.0013318408
5	0xbbf13d43	-0.0073620393
6	0x3c60c965	0.013719891
7	0xbbe8a440	-0.0070996583
8	0x3c066c1f	0.008204489
9	0x3c2226d1	0.00989695
10	0x3c2b5f07	0.010459668
11	0x3c5469c3	0.012964669
12	0xbc35e648	-0.011102267
13	0xbbea0d16	-0.0071426732
14	0x3c04e2d3	0.00811072
15	0x3bff8a6e	0.0077984845

sequential/dense_2/BiasAdd/ReadVariableOp f4 [2]
0	0xbc542cc8	-0.01295013
1	0x3c541ff2	0.0129470695

sequential/dense/BiasAdd/ReadVariableOp f4 [32]
0	0x3a2c73a2	0.000657851
1	0xbbda69b8	-0.0066654347
2	0x3c1cde48	0.00957448
3	0xba35b811	-0.000693203
4	0x3c3bb50d	0.01145674
5	0xb9985e2b	-0.0002906186
6	0x3c00572a	0.0078332815
7	0xbc04ad85	-0.008098011
8	0x3b908d6e	0.004411391
9	0x3c70e2b5	0.014702489
10	0x3c32cda6	0.010913288
11	0x3c35c84e	0.01109512
12	0x3be1ab79	0.006886896
13	0x3c6fd164	0.014637325
14	0x3ba274bf	0.004957765
15	0xbc470f35	-0.012149622
16	0x3bdf7c26	0.0068202196
17	0x3be8dc71	0.007106357
18	0xbc2ef94e	-0.010679556
19	0xbc20cb1d	-0.009814051
20	0x3a8126fe	0.000985354
21	0x3c71a6ca	0.014749238
22	0x3c10c8db	0.00883695
23	0x3c057b14	0.00814702
24	0xbbbc7a55	-0.005751888
25	0x3c226275	0.009911169
26	0x3bd9c74a	0.0066460716
27	0x3c0367c9	0.00802035
28	0x3bf4295a	0.0074512186
29	0x3c22da19	0.009939694
30	0x3c44c81b	0.0120105995
31	0x3c73f5c4	0.014890138

sequential/dense/MatMul i1 [32, 35] scale=0.0024777134 zero_point=0
0	0xf0	-0.039643414
1	0x1f	0.076809116
2	0xd5	-0.10654168
3	0x66	0.25272676
4	0x0d	0.032210276
5	0x06	0.01486628
6	0xeb	-0.052031983
7	0x92	-0.27254847
8	0x16	0.054509696
9	0xb4	-0.18830621
10	0xb2	-0.19326164
11	0xa1	-0.23538277
12	0x29	0.10158625
13	0xeb	-0.052031983
14	0x0f	0.0371657
15	0x32	0.12388567
16	0x2e	0.11397482
17	0xfe	-0.004955427
18	0x95	-0.26511532
19	0x23	0.08671997
20	0x62	0.24281591
21	0x67	0.25520447
22	0x9f	-0.2403382
23	0xf6	-0.024777133
24	0x89	-0.2948479
25	0x03	0.00743314
26	0x33	0.12636338
27	0x94	-0.26759306
28	0x89	-0.2948479
29	0x62	0.24281591
30	0x55	0.21060564
31	0x5e	0.23290506
32	0x4c	0.18830621
33	0xc4	-0.1486628
34	0x74	0.28741476
35	0x91	-0.27502617
36	0x33	0.12636338
37	0x86	-0.30228102
38	0xda	-0.094153106
39	0x16	0.054509696
40	0x68	0.2576822
41	0x74	0.28741476
42	0xef	-0.042121127
43	0x8e	-0.28245932
44	0xf3	-0.032210276
45	0xe5	-0.066898264
46	0x93	-0.27007076
47	0xdc	-0.08919768
48	0xcb	-0.13131881
49	0x1f	0.076809116
50	0x36	0.13379653
51	0xf0	-0.039643414
52	0x09	0.02229942
53	0xf0	-0.039643414
54	0xba	-0.17343993
55	0x9d	-0.24529363
56	0x27	0.09663082
57	0xc7	-0.14122966
58	0x07	0.017343994
59	0xbe	-0.16352908
60	0xc2	-0.15361823
61	0xeb	-0.052031983
62	0xa0	-0.23786049
63	0x2c	0.10901939
64	0xaf	-0.20069478
65	0x11	0.042121127
66	0x9b	-0.25024906
67	0x99	-0.25520447
68	0xd1	-0.11645253
69	0x3f	0.15609594
70	0x17	0.05698741
71	0xc1	-0.15609594
72	0xb5	-0.1858285
73	0xf2	-0.03468799
74	0x9c	-0.24777134
75	0xbe	-0.16352908
76	0x0d	0.032210276
77	0xe4	-0.06937598
78	0x00	0.0
79	0xf0	-0.039643414
80	0x9f	-0.2403382
81	0x00	0.0
82	0x49	0.18087308
83	0xf3	-0.032210276
84	0xcb	-0.13131881
85	0x29	0.10158625
86	0xf8	-0.019821707
87	0x74	0.28741476
88	0xa7	-0.22051649
89	0xf6	-0.024777133
90	0xf4	-0.02973256
91	0xf7	-0.02229942
92	0xf6	-0.024777133
93	0x9e	-0.24281591
94	0xc2	-0.15361823
95	0x61	0.2403382
96	0x3b	0.14618509
97	0x8c	-0.28741476
98	0xcb	-0.13131881
99	0x35	0.13131881
100	0x2c	0.10901939
101	0x5b	0.22547191
102	0x42	0.16352908
103	0xf9	-0.017343994
104	0xbb	-0.17096223
105	0xa5	-0.22547191
106	0x4a	0.18335079
107	0xd4	-0.10901939
108	0x16	0.054509696
109	0xf8	-0.019821707
110	0xcb	-0.13131881
111	0x56	0.21308336
112	0xa8	-0.21803878
113	0x27	0.09663082
114	0xfa	-0.01486628
115	0x77	0.2948479
116	0xfc	-0.009910854
117	0x5e	0.23290506
118	0xc1	-0.15609594
119	0x66	0.25272676
120	0x50	0.19821706
121	0x9c	-0.24777134
122	0x57	0.21556106
123	0x60	0.23786049
124	0x6d	0.27007076
125	0x01	0.0024777134
126	0x74	0.28741476
127	0xf8	-0.019821707
128	0x25	0.09167539
129	0x78	0.2973256
130	0xe6	-0.06442055
131	0xa3	-0.23042734
132	0x94	-0.26759306
133	0x10	0.039643414
134	0x0b	0.027254848
135	0x17	0.05698741
136	0xe9	-0.05698741
137	0x8f	-0.2799816
138	0xb1	-0.19573936
139	0x8d	-0.28493705
140	0x20	0.07928683
141	0x47	0.17591766
142	0x08	0.019821707
143	0x2b	0.10654168
144	0xd2	-0.11397482
145	0xb6	-0.18335079
146	0x12	0.04459884
147	0x0f	0.0371657
148	0x39	0.14122966
149	0xcc	-0.1288411
150	0xf2	-0.03468799
151	0x64	0.24777134
152	0x5e	0.23290506
153	0xc7	-0.14122966
154	0x21	0.08176454
155	0x65	0.25024906
156	0x11	0.042121127
157	0x99	-0.25520447
158	0x91	-0.27502617
159	0x3a	0.14370738
160	0xcd	-0.12636338
161	0x57	0.21556106
162	0x29	0.10158625
163	0x47	0.17591766
164	0x89	-0.2948479
165	0xdd	-0.08671997
166	0xd8	-0.09910853
167	0x52	0.2031725
168	0x83	-0.30971417
169	0x8f	-0.2799816
170	0x59	0.22051649
171	0x81	-0.3146696
172	0x6d	0.27007076
173	0x07	0.017343994
174	0x98	-0.2576822
175	0x4e	0.19326164
176	0x5e	0.23290506
177	0x9e	-0.24281591
178	0xc2	-0.15361823
179	0x00	0.0
180	0x13	0.047076553
181	0x92	-0.27254847
182	0xce	-0.12388567
183	0xa3	-0.23042734
184	0xab	-0.21060564
185	0x61	0.2403382
186	0x3e	0.15361823
187	0x6e	0.27254847
188	0x95	-0.26511532
189	0xe8	-0.05946512
190	0x1c	0.06937598
191	0x5e	0.23290506
192	0xb2	-0.19326164
193	0xbd	-0.1660068
194	0x17	0.05698741
195	0x62	0.24281591
196	0x08	0.019821707
197	0x97	-0.2601599
198	0x33	0.12636338
199	0xfe	-0.004955427
200	0xfa	-0.01486628
201	0xd3	-0.111497104
202	0x43	0.1660068
203	0x56	0.21308336
204	0x15	0.052031983
205	0x52	0.2031725
206	0x56	0.21308336
207	0x25	0.09167539
208	0xf5	-0.027254848
209	0x4a	0.18335079
210	0xd7	-0.10158625
211	0xa7	-0.22051649
212	0x25	0.09167539
213	0x36	0.13379653
214	0x1b	0.066898264
215	0xd9	-0.09663082
216	0xa5	-0.22547191
217	0x44	0.16848451
218	0x8b	-0.28989246
219	0x96	-0.26263762
220	0x20	0.07928683
221	0x62	0.24281591
222	0x28	0.09910853
223	0x18	0.05946512
224	0x1b	0.066898264
225	0x94	-0.26759306
226	0x17	0.05698741
227	0x12	0.04459884
228	0xaa	-0.21308336
229	0x0f	0.0371657
230	0xff	-0.0024777134
231	0x94	-0.26759306
232	0xb5	-0.1858285
233	0xc4	-0.1486628
234	0x1c	0.06937598
235	0x90	-0.2775039
236	0xdb	-0.09167539
237	0xce	-0.12388567
238	0x32	0.12388567
239	0x9f	-0.2403382
240	0x61	0.2403382
241	0x2b	0.10654168
242	0x6a	0.26263762
243	0xe3	-0.07185369
244	0xf5	-0.027254848
245	0xf2	-0.03468799
246	0xcd	-0.12636338
247	0xaf	-0.20069478
248	0xe8	-0.05946512
249	0x5a	0.22299421
250	0x26	0.094153106
251	0xe0	-0.07928683
252	0x78	0.2973256
253	0xd0	-0.11893024
254	0x72	0.28245932
255	0x50	0.19821706
